model/keypoint_classifier/keypoint_classifier.tflite (tflite, 6756 bytes, 6 tensors)

arith.constant f4 [9, 10]
00000000: 9995 e8bf 0761 103f 8f23 b53e 9ec2 a13d
00000010: abe1 3a3f 6b3c 16be 878f 963e a5ac 40bf
00000020: 3776 b0bf b253 c5bf edb1 b53e 85e2 81bd
00000030: 9d52 46bf f5ed b03e 2748 25be 0087 e93d
00000040: 4f04 603f 7bde 17be 5735 263f 9eb8 163f
00000050: 04f5 a3be 1c8e 8e3f 00ef c7bf 77ec 14c0
00000060: 63b9 0cbf 889f fdbf f70b ba3d c1a5 2e3e
00000070: 8970 233f db62 62bf 4028 b33d 6942 20bf
00000080: 8490 5fbf 3d2f b43e 3223 0cc0 ad3c 913f
00000090: e295 aebe 147d 12bf 7b78 703f 111b eabe
000000a0: fb09 5cbf edb0 993c 6f74 d13e 0357 dd3e
000000b0: 0f05 213f 9c7b 2d3f 39eb 34bf b69a 27bf
000000c0: 65d4 053f fc4b bd3f 5a57 8cbe 8f79 46bf
000000d0: ac8b 453f 4eba 48be 42b4 7abe 218c aebe
000000e0: 5b81 52bf 8d38 4e3e 5286 a83f d18a 41bf
000000f0: f939 8abf 2f37 913f a9ac fcbf 8dcf adbf
00000100: 22f4 f93d 37e7 d53e fa7f 32bf ff91 ef3e
00000110: e9c7 cebe 2866 5bbf 59e3 353f 6258 08bf
00000120: efe9 8abe 3c83 833f e993 12bf fa5a 50bf
00000130: 0c2b a7be 29c1 ce3e 1d79 89bf 1f6f 5c3e
00000140: b1f8 08bf 68f8 afbf f847 a63e 322b 86bf
00000150: ac3f 72be de66 6f3d 358c 023f d2d9 643f
00000160: c3e7 95bf d971 0bbd
-1.8170654 0.5639805 0.35378692 0.078984484 0.7300059 -0.14671485 0.29406378 -0.75263435
-1.3786076 -1.5416167 0.3548731 -0.06342033 -0.7746981 0.34556547 -0.16140805 0.11402702
0.87506574 -0.14830963 0.6492514 0.58875453 -0.3202287 1.1137118 -1.5619812 -2.3269327
-0.5497038 -1.981431 0.09084313 0.17055418 0.6384359 -0.8843209 0.087479115 -0.62601334
-0.8732989 0.3519229 -2.1896482 1.1346642 -0.34098727 -0.57222104 0.9393384 -0.45723775
-0.8595273 0.018761123 0.40909144 0.43230447 0.62898344 0.6776674 -0.7067142 -0.65470445
0.52277213 1.4788814 -0.27410394 -0.77529234 0.7716625 -0.1960232 -0.24482825 -0.34091285
-0.8222863 0.2013876 1.3165991 -0.7560244 -1.0798942 1.1344966 -1.9740192 -1.3578964
0.12204768 0.41777965 -0.69726527 0.46791074 -0.40386894 -0.85702753 0.7105003 -0.5325986
-0.27131602 1.0274425 -0.57256943 -0.8138882 -0.3265003 0.40381745 -1.0740086 0.21526764
-0.5350447 -1.3747683 0.32476783 -1.0481932 -0.23657101 0.05844771 0.5099519 0.8939487
-1.1711353 -0.03404412

arith.constant1 f4 [10, 20]
00000000: 9c59 a03e 9457 0abf 2d7c d13c 5f95 c8bf
00000010: 44fd 983f 3977 0dbf 03a5 0abd c7aa b63c
00000020: 0dab babc 26ed 66bf 2692 343f 98a0 d13e
00000030: ef00 013f 9c5b b43e def5 813f db13 87be
00000040: e224 e6bc 015b 3a3f 4f58 d5bd 39b1 0f3f
00000050: 9ae2 41be 966c a23f 0587 ef3d e18f cebe
00000060: b4e1 9dbe 7b92 a9be b069 6c3f fa93 153f
00000070: 0a40 0d3f de48 9bbf 3a52 1ebf aba3 093f
00000080: 2a9d 23bf 8ba2 f2be 56ec 8fbf ceb2 523e
00000090: b37c 8a3f a402 d93e 8835 463f 4cfd dbbe
000000a0: 09ac 643f 7147 393f 2e68 413f 9726 0340
000000b0: 066a 7d3f 8770 523e a59f e03e 242c 5abe
000000c0: b95d 59bf b639 cf3c 6272 82bf a809 283e
000000d0: 2472 25bf 30f5 3abf edc0 573d fc15 f5be
000000e0: 3650 323d 79ef bcbd 95fc a43d ef96 203f
000000f0: e62b 803e 728d 6abe 53bf e83e 7fc0 b7be
00000100: 1d25 fe3f bbb7 3bbe 9ae0 02bf b84f 853f
00000110: e413 9fbd 3413 473e da76 113f faeb e23e
00000120: 2edb ec3e ab18 973e 281a 643f afd3 3abf
00000130: abcc 9b3d fa83 ad3e 956e 273d 9d43 143f
00000140: 4b7e f0be 22f2 ed3e d554 163f 8d32 8a3e
00000150: 9045 283e 6d6a fb3c 9f3f 333f 7723 8b3f
00000160: 4073 66be a06c 28bf 392a 09bb 7653 383f
00000170: a58c 1abd 7239 1cbc 432f babb 6b70 133f
00000180: 1bc9 7b3f d647 0ebf 2800 d23e 9f64 92bd
00000190: fd16 96bc 6e8a 97be 9e6d 123e 7be0 053f
000001a0: d23c 7f3e ac22 4abe cafe 8d3f 20c6 733d
000001b0: d51e dd3e 7571 893e 00ee ed3e 0e13 f3be
000001c0: edbd 643f dadd 6f3f e9b7 113f f731 013f
000001d0: 4950 543f 7bf4 8fbe 9592 0c3e d668 4e3f
000001e0: 2889 023f cd80 aabe 7479 cd3e f16d 513e
000001f0: d565 bcbe a4b1 ac3f 4bcc 953e b789 7c3d
00000200: 831b 493e c0ac aa3f 7ec5 903e 4662 1f3f
00000210: 0acf 7a3e 090b ce3e f818 0dbe e034 3a3f
00000220: 1dec 513e ca60 5b3e ea04 b2be 80b6 f33c
00000230: 5e0a 0f3f 3057 07bf 9c2f 193f 5c8d 4b3e
00000240: 4e4e bcbd 6dc3 d1be 144e b6be ea74 033f
00000250: aede 273f 7ffb 573e 0329 20bf 4c02 36bf
00000260: 6b24 9ebe 79d5 a23d ee77 893e c872 f33e
00000270: f373 c6bd 0436 7a3f 0f3c 1a3f 3940 063f
00000280: 3bea 643e 9973 d03f 5b63 b73d 1408 803e
00000290: 9515 533f 6317 bdbe ea94 0a3e 252d 9c3d
000002a0: 1e89 5f3f 9c34 553e c96c 493f 47f5 edbe
000002b0: e995 493f 5125 9a3d 31fe f33e 905d 94be
000002c0: f4b5 4f3e 9935 0d3f 3fbe 873f 6510 3c3e
000002d0: 9fcb 9ebe 9316 e23e 2b13 16be 2572 ccbe
000002e0: f4d5 42bf 0a2b 803e 5bd5 743d 916b eabc
000002f0: e9d5 083f 0dd0 613f 1cd7 6b3e 799c 4d3f
00000300: 9b8b b7bc b76a 03bd 0bd2 acbe 79de 5e3f
00000310: 5a89 da3b 19b9 783f 78fe 6fbd a116 64bf
0.31318367 -0.54039884 0.025571907 -1.5670584 1.195229 -0.55260044 -0.033848774 0.02229823
-0.022786641 -0.9020561 0.70535505 0.40942836 0.5039205 0.35226142 1.0153158 -0.26382336
-0.028093759 0.7279511 -0.10417234 0.56129795 -0.18934098 1.2689388 0.11695675 -0.40344146
-0.3083626 -0.33119568 0.92348766 0.5842892 0.5517584 -1.2131612 -0.6184422 0.5376536
-0.6391169 -0.47389635 -1.1243999 0.20576021 1.0819305 0.42384827 0.7742543 -0.42966688
0.89325005 0.72374636 0.7554959 2.0492303 0.98989904 0.20550738 0.438718 -0.21305901
-0.84908634 0.025296073 -1.0191157 0.16409934 -0.6462729 -0.73030376 0.052674223 -0.47868335
0.043533526 -0.09225363 0.08055989 0.62730306 0.25033492 -0.2290552 0.4545847 -0.3588905
1.9855076 -0.18331806 -0.51123965 1.0414953 -0.07767466 0.19440919 0.5682198 0.4432066
0.4626097 0.29511008 0.8910241 -0.72979254 0.07607397 0.33889753 0.040876944 0.5791567
-0.46971354 0.46473795 0.58723193 0.26991692 0.16432786 0.030690396 0.70018953 1.0870198
-0.22504902 -0.6579075 -0.0020929708 0.7200235 -0.037731785 -0.00953518 -0.0056819036 0.5759341
0.9835374 -0.5557836 0.41015744 -0.07148098 -0.018321509 -0.295978 0.14299628 0.52295655
0.24925545 -0.19739789 1.109338 0.05951512 0.43187585 0.26844373 0.46470642 -0.47475475
0.89352304 0.93697894 0.5692125 0.50466865 0.82935005 -0.2811621 0.13727792 0.80628717
0.50990534 -0.33301392 0.40131724 0.20452096 -0.36796442 1.3491712 0.29257426 0.061654773
0.19639401 1.3333969 0.28275675 0.6225933 0.24493042 0.40242794 -0.13779056 0.7273693
0.20500226 0.21423641 -0.34769374 0.029750109 0.55875194 -0.5286741 0.5983827 0.19878143
-0.09194623 -0.4096941 -0.35606444 0.5135027 0.6557416 0.21092032 -0.6256258 -0.71097255
-0.3088716 0.07950873 0.26849312 0.4754851 -0.09690084 0.9773867 0.6024789 0.52441746
0.22354977 1.6285278 0.089544974 0.25006163 0.82454807 -0.36931905 0.13533369 0.07625798
0.873186 0.2082085 0.7868162 -0.46476194 0.7874437 0.07526649 0.4765487 -0.28977633
0.20284253 0.5515991 1.0604934 0.18365629 -0.31014726 0.44157848 -0.1465575 -0.39930835
-0.76107717 0.25032836 0.059773784 -0.028615745 0.534514 0.88208085 0.23031276 0.80316883
-0.022405436 -0.032084193 -0.33754 0.87058216 0.0066692056 0.97157437 -0.05859229 -0.8909703

arith.constant2 f4 [9]
00000000: 3467 713c 5802 84bf 7163 883f 2b12 d7be
00000010: 1924 4bbf 3a6f dabe 3086 6e3e 3fa8 a43e
00000020: 9d92 4f3f
0.014734078 -1.0313215 1.0655347 -0.4200605 -0.79351956 -0.42662984 0.23293376 0.32159612
0.8108309

sequential_1/dense_1_2/Add/ReadVariableOp f4 [10]
00000000: edcb 2e3f 21a0 a73f 7ea8 e83e 7cb0 d3bc
00000010: c7b8 6a3e 9a25 023e c993 013f b1a6 a23f
00000020: 829d febd dffa 9bbf
0.68279916 1.3095742 0.4544105 -0.02584099 0.2292205 0.12709656 0.5061613 1.270712
-0.12432386 -1.2185935

sequential_1/dense_1/Add/ReadVariableOp f4 [20]
00000000: 8087 aabe fd27 5cbf 6947 84bf 45ff 05bf
00000010: da05 dcbe 209d 443e a4ce f7be 7059 0bbf
00000020: 7d8a 3a3f 4629 713e f01d 393f 32e6 76be
00000030: 0cf8 0dbf 7e3c 063e 0def a3be 184f fa3d
00000040: 4ed7 bcbe 44b9 19bf 112f ccbe cc5c 1cbe
-0.33306503 -0.8599852 -1.0334293 -0.52342635 -0.42973214 0.19200563 -0.48399842 -0.54433346
0.72867566 0.23550901 0.72311306 -0.2411125 -0.55456614 0.13109013 -0.3201832 0.12222117
-0.36883014 -0.6004832 -0.3987966 -0.15269774

sequential_1/dense_1/MatMul f4 [20, 42]
00000000: 4666 283e b815 563e 4996 fabe ca49 bd3e
00000010: 53be ebbe 1620 86be bf63 b7be e69e 2fbc
00000020: 14b6 f4bd 05e5 8f3d b8f2 26be fd96 6ebd
00000030: 46c5 9ebd 3a7f 81bd 4813 7e3d 62a3 853d
00000040: fe53 ef3d 98d0 373d 7898 96be 3c1a d2bc
00000050: faad 273d 541e c73d 67b0 d93e 73f5 ab3e
00000060: 0c94 1c3f f655 c53e 0263 d3be 9d8c f1bd
00000070: 1c23 81bd 526b b13c 3167 8a3e be22 a83e
00000080: e831 3a3f 2ff4 bd3e 4cf4 aabe 8cda 42be
00000090: 80fd 5fbe e1ab 0bbf faf1 40bd 7119 29bf
000000a0: ad58 0c3d 8cc1 abbe 54ca 93be 9353 9ebe
000000b0: f9e4 5f3e b4e2 423e 779a 5a3d 2073 a13e
000000c0: df54 a7bd ea98 c43e 68a4 9abd 355e cf3e
000000d0: 7053 e03d 5e2d ba3d d908 733d 575e 653d
000000e0: 26ae 3a3d d289 ef3c 6b37 353a a6cd d3bf
000000f0: 39c9 c13d 7850 cb3d a229 733c b632 233e
00000100: 5122 54bd 67d7 313e 98c2 b3bd 53f4 2b3e
00000110: bd98 ed3b e47c 9e3d 89cd 39bd d14e 113d
00000120: 6ecb ebbd 8b16 0ebe c421 84be e53a 84be
00000130: 0ea6 5bbe ff5a 533d 0118 423c f72d 30bd
00000140: 63b4 80bd 5f69 2dbe 4500 d4bd 50d0 26be
00000150: f0d8 e13c 00af cfbc 58c5 fd3d dbd5 8b3f
00000160: 915f 193d c8c4 3d3f 4220 dfbe 235d 113f
00000170: 7f41 d6be 66e5 1e3f eff8 283e 9702 4e3e
00000180: d631 793d 3b86 3c3e 62cb 10be 3882 943d
00000190: 8a94 33be 28e9 8b3d e620 733d 2367 273e
000001a0: 958d 7cbd 60cd 093e 1f75 8fbe ac14 82bc
000001b0: 477a 72be b794 ee3b 951c 2d3d b19b 1f3e
000001c0: 0908 ef3d 6006 34be 6a78 c0bd 4871 25bf
000001d0: 40d8 21be eac4 44bf 344c 27be 8cf0 1d3e
000001e0: 0fc0 4c3f 4442 59be b80a 933f 180b a4bf
000001f0: 8299 ba3f e77b 91bf 1e59 073e 96df 92be
00000200: f3e8 833c 06d7 a3be 75d7 493d 8b70 9ebd
00000210: 442b 863d 14fe c33d 6095 503d 2a8b 0b3e
00000220: 1381 ae3d 59ae 503d ab72 1e3c 16b8 f23c
00000230: c5d5 0ebe 34df 88bd 76d7 65be 7564 adbc
00000240: 751f 7d3d fdb7 9b3d 33ef 003d 8d35 903d
00000250: a56d 533d a0ad 7d3c e87c ba3d 8e41 1a3d
00000260: dd10 903d f849 c53d 0bb4 993b 81c3 bc3d
00000270: b4b7 0f3d 2f07 c03d 25da 253e 20f8 fd3c
00000280: acc9 06be 71e3 133e 5f72 2ebd 81ad dd3d
00000290: fc13 81bc caca 983d df7c 3dbe d639 cdbf
000002a0: c628 86bd 50a3 923e d91c 8c3e ac92 1cbe
000002b0: b7ef 623e 2fd5 743c a04e 773e 8b1d 643e
000002c0: f148 07c0 cd95 843e 3fe4 2d3e 7f60 a93d
000002d0: 58ab dc3d 386b 023d c11a 4f3d 004c 46bd
000002e0: d715 443d df84 23bd 4de5 1c3e 7068 993d
000002f0: 6fa3 0d3e 97a3 f13b a522 3f3d d05a 32bd
00000300: 7771 ef3c 2482 f9bc 9345 1f3e ddff cc3d
00000310: 9796 1b3e 522a 013a 08ab b63d 0ec6 5abd
00000320: a109 643d 4a01 5fbd cea5 253e 1b91 c23d
00000330: 5402 2f3e a639 d83c c2b2 d33d 04ea 91bc
00000340: 551c 8e3d 3866 d2bc a8ba 29be 00ed 88bb
00000350: 7aca 313f 86cc a73e 37eb d63e ddac 0f3b
00000360: 6005 dc3e 840b cabd 6ed8 c53e 2427 cdbd
00000370: 9a51 cb3d d4de 183c 449c 873e 2d8b f53d
00000380: 0cf1 e83e 7449 663e 522f ef3e 8283 2a3e
00000390: 5d30 873d ad2b 0cbd f94c 7fbe 4c74 b33c
000003a0: eeb0 92be 1b06 2f3d a629 94be 8bb2 973d
000003b0: 032c 7bbe f082 05be 33d5 07bf d648 ad3b
000003c0: f9eb c3bd d74c 86bd a958 34bc 1a7a d93c
000003d0: b794 34bc a820 29be d267 003f 3c68 e0bd
000003e0: 8461 883f e72f 6abe 2c9a a93f 21d0 50be
000003f0: 76e9 abbd b80d 653e 3a61 d83e c547 25bd
0.16445264 0.20906723 -0.48942783 0.3697036 -0.46043643 -0.26196355 -0.35818288 -0.010719037
-0.11948791 0.07026104 -0.16303527 -0.058249462 -0.07752471 -0.06323095 0.062030107 0.065253034
0.11685942 0.044876665 -0.294132 -0.025647275 0.0409374 0.097225815 0.42517397 0.335857
0.611634 0.38542145 -0.41286474 -0.11794398 -0.06305525 0.02165762 0.27031854 0.32839006
0.727324 0.3710036 -0.3338951 -0.19028682 -0.21874046 -0.5455914 -0.047105767 -0.66054446
0.034264255 -0.33546102 -0.28865302 -0.30923137 0.2186469 0.19031793 0.053369965 0.31533146
-0.08170485 0.38397914 -0.07550889 0.40501562 0.109534144 0.09090684 0.05933461 0.055998173
0.045576237 0.029240523 0.000691286 -1.6547134 0.09462208 0.099274576 0.014841469 0.15937313
-0.05179054 0.17367326 -0.0877735 0.16792421 0.007250874 0.07738665 -0.04536203 0.035475556
-0.115134105 -0.13875787 -0.2580701 -0.25826183 -0.21450064 0.051600453 0.011846543 -0.043012585
-0.06284406 -0.16934727 -0.10351614 -0.16290402 0.027569264 -0.025352001 0.12391156 1.0924639
0.037444655 0.7412839 -0.43579298 0.5678274 -0.41846845 0.62068784 0.1650121 0.20118175
0.060838543 0.1841058 -0.14140084 0.072514 -0.17537132 0.068315804 0.059357546 0.16347937
-0.06165846 0.1345725 -0.28019044 -0.015878998 -0.23679458 0.007280912 0.042263586 0.15586735
0.116714545 -0.17580557 -0.09397967 -0.6462598 -0.15805149 -0.76862967 -0.16337663 0.15423793
0.7998056 -0.21216685 1.1487646 -1.2815886 1.4578097 -1.1365937 0.1321759 -0.28686208
0.01610229 -0.31999987 0.04927774 -0.077363096 0.06551221 0.09569946 0.050923705 0.13627306
0.08520713 0.05094752 0.009670894 0.029628795 -0.13948734 -0.066831976 -0.22445473 -0.021166066
0.061797578 0.07603452 0.03147812 0.07041464 0.051618237 0.01548329 0.09105855 0.037660174
0.070344664 0.09633249 0.0046906522 0.09216977 0.035087302 0.0937637 0.16196497 0.031002104
-0.13162869 0.14442231 -0.04258954 0.10824109 -0.0157566 0.07460554 -0.18504666 -1.6033275
-0.06550746 0.28640223 0.2736576 -0.15290326 0.22161756 0.014943405 0.24151087 0.22276895
-2.113827 0.2589554 0.169816 0.08270358 0.10774869 0.031840533 0.050562624 -0.048412323
0.04787239 -0.039921638 0.15321846 0.07490623 0.13831876 0.0073742378 0.0466639 -0.043543637
0.029228909 -0.030457564 0.15553884 0.100097395 0.15194164 0.00049272657 0.0891934 -0.053411536
0.055673245 -0.05444459 0.1617653 0.09500333 0.17090732 0.026394676 0.1033683 -0.017811783
0.06938998 -0.025683507 -0.1657511 -0.004178643 0.6944958 0.32773226 0.4197633 0.0021923103
0.4297285 -0.09865478 0.38641685 -0.10017231 0.09927674 0.00933047 0.2648641 0.11989436
0.45496404 0.22488958 0.4671579 0.16651729 0.066010214 -0.03422134 -0.24931706 0.02190604
-0.28650612 0.042730432 -0.28938025 0.07407101 -0.24528508 -0.1303823 -0.5305969 0.0052882237
-0.095664926 -0.06557625 -0.011007466 0.02654748 -0.0110217845 -0.16516364 0.5015842 -0.10957381
1.065476 -0.22869836 1.3250175 -0.20391895 -0.083941385 0.22368515 0.42261678 -0.040351648
