model/keypoint_classifier/keypoint_classifier.tflite (tflite, 6756 bytes, 6 tensors)

arith.constant f4 [9, 10]
000000 3c 32 0c bf bc ab eb be 15 10 32 bf 4b 41 c4 be
       -0.5476415 -0.4602946 -0.6955579 -0.38331065
000010 d1 05 4a 3e 5a 30 b4 3e 34 08 10 3f 9e d9 fe 3e
       0.19728781 0.3519314 0.56262517 0.49775404
000020 0a f0 42 3f ac 4b 2b 3f 3b 39 4c bd 52 5e fa be
       0.7614752 0.6691234 -0.049859267 -0.48900086
000030 45 2b 12 bf 92 8e f7 3e af a2 1e 3f 64 4a 3d 3f
       -0.57097274 0.4835096 0.61966985 0.73941636
000040 9a 79 f4 3d fd 94 bd be 5e 8f cf 3e 49 67 05 bf
       0.11937256 -0.37027732 0.40539068 -0.52110726
000050 fd 4d 0f bf 78 12 1b bf f4 b2 76 3f 8c e9 a5 3f
       -0.55978376 -0.60575056 0.9636681 1.2961898
000060 71 63 9a bf 26 7e 4c 3f 8e 11 f0 be dc 43 40 3f
       -1.2061597 0.7987999 -0.46888393 0.75103545
000070 dc 24 d0 bf c6 cf 94 be f9 ce 22 be ac c8 61 bf
       -1.6261249 -0.2906477 -0.15899266 -0.88196826
000080 f5 9e dc bd fc a0 14 bf f0 d3 bd bf 77 d9 0a c0
       -0.10772506 -0.5805814 -1.4830303 -2.169523
000090 aa 4d cf bf 56 22 dc bf 08 1f 6b 3f 6b 29 b2 bf
       -1.6195576 -1.7197978 0.91844225 -1.391889
0000a0 96 e6 f6 3d 29 32 ad bd 52 c8 0b be 81 cc 38 bf
       0.120556995 -0.08456833 -0.13650635 -0.7218705
0000b0 45 8c 9d 3e 77 99 77 3e e8 8c 5e 3f 8a b9 56 3f
       0.3077108 0.24179636 0.86933756 0.8387686
0000c0 e8 55 07 bf 67 a0 75 3e 5e 68 88 3c fa ab 1b 3f
       -0.5286546 0.2398697 0.016651329 0.6080929
0000d0 81 fd 95 3f 56 2b 0a bf 2a 74 20 bf cb dc a6 bf
       1.1717988 -0.53972375 -0.6267725 -1.3036131
0000e0 66 9b 3b bf b0 be 95 be 77 ea 9f be 0c f8 07 3f
       -0.73283994 -0.29247046 -0.3123357 0.53112864
0000f0 9a e7 31 bf 3e 68 cd bf fb 82 8b bf bc 63 bc 3f
       -0.6949402 -1.6047437 -1.0899347 1.4717937
000100 b8 93 3a 3f 61 bb 55 bf d2 13 7e be c5 10 5f bf
       0.7288165 -0.8348904 -0.24812248 -0.87134963
000110 ab 47 74 bf dd 1b 28 3f 08 99 29 bf 99 08 72 3f
       -0.95421857 0.65667516 -0.6624913 0.9454437
000120 5c 26 95 3e 3e 94 cd be 04 2f 68 3f ab 76 d3 be
       0.29130828 -0.40152162 0.9069674 -0.41301474
000130 aa 58 10 c0 de f1 a1 bf fe 2e c8 be 87 6d 56 c0
       -2.2554116 -1.2651937 -0.39098352 -3.350435
000140 43 58 b5 3f bf 57 e8 3e 70 57 a1 bf 53 5f 4c bf
       1.416756 0.45379445 -1.2604809 -0.79832953
000150 75 08 16 c0 20 86 35 bf ca 6a 90 3e 10 94 00 bf
       -2.3442662 -0.70907784 0.28206474 -0.50225925
000160 b2 9b 05 be 80 0b 46 bf
       -0.13047674 -0.773613

arith.constant1 f4 [10, 20]
000000 d3 c3 f5 3d fe 42 13 3f 65 9e 60 3e c5 94 0b bf
       0.12000241 0.57524097 0.21935423 -0.5452388
000010 5a ae a0 be 39 ce a5 3f cd 1c f9 3d 21 e8 4e 3f
       -0.3138302 1.2953559 0.121636964 0.8082295
000020 7e c4 a4 3f b8 5e 0d 3f e0 ea 9f 3f 94 0f 06 3f
       1.2872465 0.55222654 1.2493553 0.5236752
000030 f4 31 83 3d f6 82 83 3e 10 75 34 bf f5 1b d4 bc
       0.06406012 0.25685853 -0.70491123 -0.025892237
000040 db 26 3e 3f 98 2d dd 3e e9 12 35 bf b9 45 56 3e
       0.7427804 0.43198848 -0.7073198 0.20925035
000050 79 7d 36 be a2 1e 59 3e e8 3a 15 bf 0b 6a e9 bf
       -0.17821302 0.21203092 -0.5829301 -1.8235487
000060 20 57 72 3f 22 c0 66 be 9e 46 30 3f a9 08 49 3f
       0.9466419 -0.2253423 0.68857753 0.7852884
000070 77 33 b3 3f d6 2e d5 be 72 14 b7 3f 45 4b 57 bf
       1.4000081 -0.41637295 1.4303114 -0.8409923
000080 ab 1e ce be dd ef b3 be 34 a2 e9 3e 3a 73 52 be
       -0.40257773 -0.3514394 0.45631564 -0.20551768
000090 ba 93 fe 3e bf be 84 3f 2e 3a 99 be f9 a3 43 bf
       0.4972208 1.0370711 -0.299272 -0.7642208
0000a0 e4 6e 9f bf 46 e6 a1 3e ef 21 04 3e 76 b3 ac bf
       -1.2455716 0.31620997 0.1290357 -1.3492267
0000b0 b3 af bd be 7b 2d ec be 2f b7 e7 3e 1f ba 16 3e
       -0.3704811 -0.4612845 0.45256945 0.14719437
0000c0 f0 ef 61 3e 93 3d 12 bf e0 57 01 3f 85 65 ee be
       0.22064185 -0.57125205 0.5052471 -0.46561828
0000d0 0c 6b ee bf b6 de 45 be 05 0d 32 3f 05 25 c7 3f
       -1.8626418 -0.19323239 0.69551116 1.5558172
0000e0 8d d3 43 3f 8e d6 7e 3f 43 f3 e9 bf 3d c7 ab be
       0.76494676 0.99546134 -1.8277363 -0.33550444
0000f0 92 7d a0 bf d0 d3 57 bf cd 6f 60 be b8 d4 91 be
       -1.2538321 -0.84307575 -0.21917649 -0.28482604
000100 b8 16 9f 3e 10 37 1b be 0c b7 1e bd 2c 3f da bd
       0.3107202 -0.15157723 -0.038748786 -0.1065658
000110 fc 61 b7 bf ae 7f 8e bf bf 3e 16 c0 c4 55 b2 bd
       -1.4326777 -1.1132715 -2.3475797 -0.08707765
000120 a9 37 dd bf 6a 51 2a 3f e4 09 4e bd 64 b9 38 3f
       -1.7282611 0.6653048 -0.0503024 0.72157884
000130 13 0c 44 3f 67 d1 82 3e e9 5f 96 be f0 c2 b3 3e
       0.76580924 0.25550386 -0.2937005 0.35109663
000140 43 86 a1 3d fb 3a 9b 3e 8f d8 41 3f aa 5c 32 be
       0.078869365 0.30318436 0.7572107 -0.17418161
000150 8b d0 53 3f 0c 4a 87 3e 18 f4 89 3e a5 7b f4 3e
       0.82740086 0.2642368 0.2694404 0.47750583
000160 ed 44 1f be aa cd f9 bd 21 fe 4c be 25 72 4e bd
       -0.15553637 -0.121974304 -0.20018817 -0.050401825
000170 a5 3c 4b 3d 44 02 62 3f c7 9d dd 3f aa be 01 3d
       0.049618382 0.8828471 1.7313775 0.031675972
000180 b2 43 78 3f 56 59 bf 3f 23 e9 40 3f c6 88 ab 3f
       0.96978295 1.4949138 0.7535574 1.3401115
000190 2f c4 84 bc 4a c9 2c bf 95 ff ab 3f 08 5c dc 3d
       -0.016206829 -0.6749464 1.3437372 0.10759741
0001a0 77 85 28 bf 3a 26 21 bf 82 21 3f bd c3 4c c4 be
       -0.6582865 -0.62948954 -0.046662815 -0.38339815
0001b0 2d 16 41 be 38 2c 9a 3f d8 7c 25 bf 4e f9 23 be
       -0.18856116 1.2044744 -0.6464362 -0.16013071
0001c0 5b 8b c9 bb df 4d 0e 3e c1 c9 94 bf 11 d1 bd bc
       -0.0061506457 0.13896893 -1.162407 -0.02317098
0001d0 0d 3c 34 bc 26 1a 25 3e 61 01 b6 3e 9a f9 ce be
       -0.011000645 0.16123256 0.35547927 -0.40424806
0001e0 e1 c2 41 3e fd 21 b9 3d e5 eb 66 3f bc 99 cf bd
       0.18921997 0.09039686 0.90203696 -0.101367444
0001f0 ba db c0 3e 68 cf e0 bf 6c 64 93 bd c9 88 db 3d
       0.37667638 -1.7563295 -0.07196888 0.10719449
000200 a6 dd f3 3e 7f cb ba 3e 8e c6 db 3e ff 95 62 be
       0.47630042 0.3648338 0.42924923 -0.22127531
000210 cf 6c 27 3c c8 48 19 3f b3 e7 c0 3d 0b d1 de 3e
       0.010218813 0.5987668 0.09419193 0.43518862
000220 5b 14 f5 3e 40 2b 8e 3d f7 50 ce be 3f 23 47 3f
       0.47867092 0.06941843 -0.40296146 0.77788156
000230 90 e8 a7 be 00 7d a3 3e 45 7d 34 3f 08 47 94 bd
       -0.3279462 0.31931305 0.70503646 -0.07240111
000240 90 7e fa 3e 3e 59 5b 3f 38 e3 3d 3d 79 13 2b 3e
       0.48924685 0.8568305 0.04635927 0.16706647
000250 28 9e 2a 3f 39 78 8e be d7 7f 47 3f af cb 4e be
       0.6664758 -0.27826098 0.77929443 -0.20194887
000260 9f e0 d1 bd c5 f8 8b 3f 61 89 a1 3e 30 b5 a1 3f
       -0.10247921 1.0935293 0.31550124 1.2633419
000270 c0 f2 17 3e 1e da 4a 3f 04 4a 25 be 0b 58 a7 3f
       0.14838696 0.7923907 -0.16141516 1.3073744
000280 3c 42 b7 3f e1 4a 3c 3f 7d 5c d6 3e 31 4e 86 3f
       1.4317088 0.73551756 0.41867438 1.0492612
000290 09 3d 8f 3d 5d 9f d3 3c c1 6a 01 40 91 12 20 3f
       0.069940634 0.025832826 2.0221407 0.6252833
0002a0 d5 29 79 3f 40 24 eb 3e ae 9a 17 3f 48 3a 55 3f
       0.97329456 0.45926094 0.592204 0.83292055
0002b0 cb 9b 72 3f ef 93 f4 3d 9b a1 d9 3d f4 11 58 3d
       0.9476897 0.119422786 0.10626527 0.052751496
0002c0 91 8d 41 be 14 51 89 3f 5f 27 2f 3f 3a fc 0e 3c
       -0.1890166 1.0727868 0.6841945 0.008727128
0002d0 b6 ce 12 be 3d 0e 31 be d7 65 13 3e 32 76 96 3d
       -0.14336666 -0.17290588 0.14394318 0.07346763
0002e0 6e 57 fc 3d 19 5e 98 3f ec 1d df bd 86 71 31 3b
       0.123213634 1.1903716 -0.10894379 0.0027075722
0002f0 15 52 b1 3f 43 2e 09 3e f9 56 31 3f 09 0d 8a 3e
       1.3853174 0.13396554 0.69273335 0.2696307
000300 8a 67 30 bc 78 0f 40 3f 0e 81 c6 3e bf f3 2b 40
       -0.010766873 0.75023603 0.38770336 2.686752
000310 00 dd d1 3f c6 f3 dd 3d 7d 03 22 3e a9 8b 6f 3f
       1.6395569 0.10837512 0.15821643 0.9357248

arith.constant2 f4 [9]
000000 7c 6a f6 bf f3 a4 59 be 3a c9 2e 3f 8f 53 c5 3f
       -1.9251246 -0.2125433 0.682758 1.5416125
000010 c5 0a c9 bf d8 b6 cb bf 5d a8 9b 3f 1b e8 a5 3f
       -1.5706412 -1.5915174 1.2160755 1.2961458
000020 9f 43 06 40
       2.0978773

sequential_1/dense_1_2/Add/ReadVariableOp f4 [10]
000000 67 c7 ca 3e 4d 48 6d 3f 35 ae 39 3f 24 52 c3 3f
       0.39605257 0.9268845 0.72531444 1.5259442
000010 6a 45 93 3d 7e 7c 38 3f 0d 6c e5 bd d2 f9 26 bf
       0.07190974 0.7206496 -0.1120225 -0.65224946
000020 c3 a3 9f 3d 0f 89 7d 3e
       0.07794907 0.24759315

sequential_1/dense_1/Add/ReadVariableOp f4 [20]
000000 b4 f9 16 3e 30 fb 7b bd 26 44 c9 3d ed 6c e7 3d
       0.14743692 -0.061518848 0.098274514 0.11300073
000010 40 4d 3a bf f3 64 40 bf dc de 3d be d6 74 31 bf
       -0.72774124 -0.75154036 -0.18542045 -0.693189
000020 3d a4 1c bf 04 37 6b 3e c5 a7 51 bf 5d 4d 4c bd
       -0.6118811 0.22970206 -0.8189662 -0.049878467
000030 90 36 5b be 0e cf 0e bf c0 09 3a bf b8 31 5d bf
       -0.21407533 -0.5578469 -0.7267113 -0.8640399
000040 d7 c6 4d bf 46 ab 14 bf 9b cb 37 3f 76 96 1c bf
       -0.8038153 -0.5807384 0.7179505 -0.61167085

sequential_1/dense_1/MatMul f4 [20, 42]
000000 bc a0 c2 3d a4 e9 67 3e 76 b6 a7 be de f9 cb 3e
       0.09503314 0.2264772 -0.32756394 0.3983907
000010 15 2b 9f be f4 8c aa 3e af 3f fe 3c 97 7c 20 3e
       -0.31087556 0.33310664 0.031036226 0.15672527
000020 7b 3b d0 3d 48 4a 3a 3e bb 71 41 bf ae 94 0a 3d
       0.10167595 0.18192399 -0.75564164 0.0338332
000030 65 86 e1 bd c2 37 36 3e a6 5a 46 3e af da 8e 3e
       -0.11011962 0.17794707 0.19370517 0.27901217
000040 38 0f 77 3e e8 fd 77 3e c0 4e 52 bf ae c1 8e 3c
       0.24126899 0.24217951 -0.8215141 0.017426338
000050 5e 49 4b be 81 72 f8 3d 4c d5 8e 3e 0a 4f f9 3d
       -0.19852206 0.12131215 0.27897108 0.12173279
000060 a8 fc fb 3e 24 b0 be 3d 2c 92 24 bf 08 00 3d 3d
       0.492162 0.0931094 -0.6428554 0.046142608
000070 e2 c3 20 3d 73 18 1f 3e c4 fa 4f 3f d3 34 fe 3d
       0.03924931 0.1553667 0.8124201 0.12412419
000080 d2 32 de 3f a4 98 30 bd bd b7 4e be 47 84 a1 3d
       1.7359259 -0.04311432 -0.20187278 0.07886558
000090 04 35 53 3e 18 08 1e 3e 1e 66 38 3f 80 4a af 3d
       0.20625693 0.15432775 0.7203082 0.085591316
0000a0 54 ea b6 3f a6 af 09 3e e0 a0 ee bd 2d 91 3a be
       1.4290261 0.13445911 -0.11651778 -0.18219443
0000b0 4e 99 eb be 72 a7 b4 3f 42 27 c7 be 3f 42 40 3f
       -0.460154 1.41136 -0.3889714 0.75101084
0000c0 8a d5 ec be 71 aa 1f 3f 5b e4 8c be 2b 9e 29 3f
       -0.46256667 0.6236945 -0.2751797 0.6625697
0000d0 e9 f0 90 bd 12 ae 6f 3d 29 4a 40 bd c8 55 09 3e
       -0.070772 0.058515616 -0.046945725 0.13411629
0000e0 d7 9d ea 3c a6 e9 3a 3e 07 f6 4e 3d d1 ad fb 3d
       0.028639717 0.18253192 0.0505276 0.12289012
0000f0 43 df 21 be 45 4e 49 3d 5f a4 49 bc 40 5c cc 3d
       -0.15807824 0.04914691 -0.0123072555 0.09978533
000100 32 aa e5 3d b1 15 01 3e 9b 9d 53 3e 4f 32 23 3e
       0.11214103 0.12605931 0.2066559 0.1593716
000110 49 04 01 be 52 b5 40 3c 71 4a 4d 3d e0 9d d3 bd
       -0.12599291 0.01176198 0.05011982 -0.10332847
000120 a2 c0 6c 3e bf 86 b8 be 8d 98 8f 3e 71 24 bb be
       0.23120359 -0.36040303 0.28046075 -0.3655124
000130 f0 e2 e4 3c 84 b6 24 bd 7b f6 a4 3e 06 c1 77 be
       0.027940243 -0.040213123 0.322193 -0.24194726
000140 f9 49 0d 3f de 78 bb be 33 22 18 3f 9f e7 c2 be
       0.55191 -0.36615652 0.59427184 -0.38067338
000150 b0 8d 05 bd 54 db 39 3e 12 6d 24 3f ca 09 b9 be
       -0.032605827 0.18150073 0.6422893 -0.3614028
000160 8d ed bf 3e f7 3e 4c bd 4b 20 84 3e 22 8d 40 3b
       0.37485924 -0.049864735 0.25805888 0.0029380997
000170 21 50 84 3e af 46 c8 3d f9 ae a7 3e 48 b4 3b 3c
       0.25842384 0.09779107 0.3275068 0.011456557
000180 40 8b 8d 3e 95 85 14 3d ef 61 6b 3e e3 bc 0d 3d
       0.27645302 0.036260206 0.22986577 0.034603965
000190 d7 86 2b 3e 84 e6 3d 3d 8a af a6 3e 07 11 9f 3c
       0.16750656 0.046362415 0.325558 0.019417299
0001a0 9d 73 82 3d 24 a5 e0 3c b6 ec 7a be 8c 96 03 3d
       0.06369708 0.027422495 -0.2450436 0.032125995
0001b0 ef 92 ca be 6b 37 ad 3d 70 cb 81 3e 4a 01 aa 3d
       -0.39565226 0.08457836 0.25350523 0.08301027
0001c0 24 f1 23 3d 57 71 ac 3c 72 c1 6d be e8 13 c9 bd
       0.04002489 0.021050138 -0.23218325 -0.0981825
0001d0 46 f5 bd be a4 91 cf bf 3a b3 18 3e a6 d1 24 3e
       -0.3710119 -1.6216321 0.1491212 0.160956
0001e0 52 a4 38 3a 38 02 c4 3d 25 50 33 be 4e 54 53 3d
       0.00070435286 0.09570736 -0.17511041 0.05159407
0001f0 83 6b 8b be 92 19 ba 3c c0 ca 5f bd 18 28 64 3e
       -0.27230462 0.022717271 -0.054636717 0.2228092
000200 1f 8f a6 3e a0 27 1c bf e3 22 ca 3d 37 fe d5 be
       0.32531068 -0.6099796 0.09869935 -0.41795513
000210 08 37 cc 3d 29 c9 e6 be 6c 42 9a 3d d4 00 0a be
       0.09971434 -0.45075348 0.075322 -0.13476878
000220 34 d3 74 bc 98 e3 b2 bd c8 63 b1 bd 62 72 a8 3d
       -0.014942933 -0.08734816 -0.0866161 0.08224942
000230 64 fd 0f be 24 88 d7 3d 42 04 e1 bd bd 58 d4 3d
       -0.14061505 0.10524014 -0.1098714 0.10368488
000240 0d 6c 63 3d 37 eb b3 3c 9d a8 13 bc 9d cf 18 bd
       0.055522967 0.021962745 -0.0090123685 -0.03730737
000250 60 6b 0f be 9f f1 81 bc b0 0b 92 be 97 d1 b6 3e
       -0.14005804 -0.015862284 -0.28524542 0.3570678
000260 f8 c9 ec 3d 4c 40 fa 3d 3a 01 38 3c e7 6d 75 3e
       0.1156196 0.12219295 0.011230761 0.23967706
000270 e0 31 d7 be 5e 2e c1 3e ad 8d 9f bf a8 c8 ef 3e
       -0.4203024 0.37730688 -1.2465111 0.46832776
000280 df 9c d5 3e 91 ab 4d 3e 9e 3b 30 3e 47 78 b5 3e
       0.41721246 0.20084979 0.17210242 0.35443327
000290 33 dc af 3d 68 c9 09 3f e6 83 61 bc 35 5b 31 3f
       0.085869215 0.53822947 -0.013764357 0.69279796
0002a0 80 39 39 3e 78 13 d6 bd d0 18 48 3d f0 da 99 3e
       0.18088341 -0.10452932 0.048851788 0.3004985
0002b0 f6 12 b4 3c 4f 0f 86 3c 02 2a 3c be 37 21 8e 3e
       0.021981698 0.016364722 -0.183754 0.27759716
0002c0 00 d5 81 3e 49 56 c1 3e de f3 30 bc e3 15 cb 3d
       0.2535782 0.37761143 -0.01080033 0.09916284
0002d0 1d 81 2c bd 4e 01 db 3d b4 ff 2b 3c 05 a1 ff 3d
       -0.04211532 0.10693608 0.010497976 0.12481884
0002e0 ae 7a b3 3d 4b 09 56 3d 77 2b d4 bd 88 de 4e 3d
       0.08763634 0.052254956 -0.10359853 0.05050519
0002f0 25 6b 89 bd 73 6f 93 be 86 6e 46 be 59 15 dc be
       -0.06709889 -0.28795967 -0.19378099 -0.42985037
000300 b8 28 16 bf 0a d7 5e 3b 8e 03 17 be ab 34 6e 3d
       -0.5865588 0.0034002685 -0.1474745 0.058155697
000310 0f 92 6a 3d 2c 87 61 be f4 08 f5 bb 47 63 8f bf
       0.0572682 -0.2202422 -0.007477874 -1.1202172
000320 94 be c7 be a0 18 a5 bf 48 13 07 bd 95 8a ee 3d
       -0.39012587 -1.289814 -0.032977372 0.11647526
000330 f1 9e 42 3d a2 ee 07 3e 64 23 bb 3d f0 3f f5 3d
       0.04751486 0.13274625 0.091376096 0.11975086
000340 b5 2d 3c 3d 16 06 19 3e f0 69 78 3e 0c 49 ff 3d
       0.045942027 0.14943728 0.24259162 0.124651045
000350 88 cb 7b 3e 39 6b 77 be 52 75 fa 3d da b6 43 3e
       0.2458936 -0.24161996 0.12229408 0.19112721
000360 6c 79 cb 3d 4b a4 6c 3e a0 d1 8c 3d b8 99 73 3e
       0.09935269 0.23109548 0.0687592 0.23789108
000370 72 3e de 3d 6a 4e fe 3d c8 26 03 3d 2d 6d ca 3d
       0.10851754 0.124173 0.032019407 0.09884105
000380 8a e7 0a bd 14 35 d2 3c d2 a7 93 bd b5 1b 1d bd
       -0.03391222 0.025660075 -0.072097436 -0.0383565
000390 0e 00 10 3e 03 e3 f5 3d ed 01 0c 3d c7 bd 6e 3d
       0.14062521 0.1200619 0.034181524 0.058286455
0003a0 c0 a7 15 be f6 c5 d1 3c ed 13 a6 be 98 43 9f bf
       -0.14614773 0.02560709 -0.32437077 -1.2442503
0003b0 2c 7f a5 3d 8f 69 27 3e 0b b9 d4 bb 6b 68 a8 3d
       0.08080897 0.16348861 -0.0064917854 0.08223041
0003c0 cb 2b a6 be 7b 10 73 be 8c 6a 37 bf 9e 3a a1 bd
       -0.32455286 -0.23736756 -0.7164695 -0.078725085
0003d0 5e 75 22 be 5e 7c 3b 3e 67 79 57 3e ba d2 ce 3d
       -0.15865085 0.18309161 0.21042405 0.10098787
0003e0 8f e6 9a 3e b4 14 9b 3a b5 0d bd 3e 5e 96 a3 bf
       0.30254027 0.0011831732 0.3692452 -1.2780263
0003f0 30 f2 92 3c d0 b4 d1 3c 3b f6 5c bf 5c ae 66 be
       0.01793775 0.025598913 -0.8631322 -0.2252745
